best_model.pt (torch, 630126 bytes, 22 tensors)

rnn.weight_ih_l0 f4 [192, 18]
0	0x3f7e4976	0.9933084
1	0x3fbe1dc6	1.4852836
2	0x3fa3ca07	1.2796029
3	0xc00b44d0	-2.176075
4	0x3e66269b	0.22475664
5	0x3f184083	0.5947344
6	0x3eb8198d	0.35956994
7	0x3fbdaa19	1.4817535
8	0x3fc376f9	1.5270683
9	0xbd8ead79	-0.06966681
10	0x3f06f6e7	0.52720493
11	0x3e5bd102	0.21466449
12	0x3dfcb287	0.12338739
13	0x3eb15b19	0.34639814
14	0x3e9d578a	0.3073085
15	0x3faf1bf3	1.3680404
16	0x3fc09a32	1.5047057
17	0x3f9f3d09	1.2440501
18	0xbe10e5e5	-0.14150198
19	0x3f525c58	0.82172155
20	0x3f2ef6fb	0.6834561
21	0xbfae5969	-1.3621036
22	0x3df9455e	0.12171434
23	0x3d99f178	0.0751676
24	0xbcff6a25	-0.031178543
25	0x3f3c2aa7	0.7350258
26	0x3f42553a	0.75911295
27	0xbf3fbc1f	-0.74896425
28	0x3e0e5b58	0.13902032
29	0xbef85e82	-0.48509604
30	0x3ecdfa72	0.40230137
31	0xbdf44484	-0.11927131
32	0x3dba7331	0.09104002
33	0x3f4eb81b	0.8074967
34	0x3f40873c	0.7520635
35	0x3f440676	0.7657236
36	0x3e13a3a5	0.14417894
37	0x3f0fabbb	0.56121415
38	0x3ef67951	0.48139432
39	0xc0120e65	-2.2821286
40	0x3ec250a9	0.37952164
41	0x3e5ec88c	0.2175619
42	0x3eae4b4a	0.34041816
43	0x3f160bd6	0.5861181
44	0x3f0b3707	0.5438084
45	0xbf599430	-0.8499174
46	0xbf18011a	-0.5937668
47	0x3e258c77	0.16166864
48	0xbd995d72	-0.074885264
49	0x3dc718d3	0.09721532
50	0x3d6047b4	0.05475588
51	0x3ecb048a	0.396519
52	0x3ec1db6b	0.37862715
53	0x3f1301d7	0.5742468
54	0xbfa9ad62	-1.3256037
55	0xbfb3214d	-1.3994538
56	0xbfa9c999	-1.3264648
57	0xbfe5a63d	-1.7941357
58	0xbf4ba973	-0.79555434
59	0xbf309c76	-0.6898874
60	0xbf34827c	-0.70511603
61	0xbfc751b2	-1.5571806
62	0xbfb7aeb2	-1.4350188
63	0xbf6af613	-0.9178173
64	0xbf5ab792	-0.85436356
65	0xbbcea6c4	-0.006306501
66	0xbe77b47d	-0.24189945
67	0xbf10a655	-0.565038
68	0xbef41b8b	-0.47677264
69	0xbfc8c902	-1.5686343
70	0xbfae0210	-1.359438
71	0xbf9e905e	-1.2387807
72	0x3ec158be	0.37763017
73	0x3e87165d	0.2638425
74	0x3e887333	0.2665039
75	0xbff842db	-1.9395403
76	0x3eac90a8	0.33704114
77	0x3ea94daf	0.3306708
78	0x3eb3a28f	0.3508496
79	0x3ef621ea	0.4807275
80	0x3e990721	0.2988825
81	0xbf180567	-0.59383243
82	0x3e51af5f	0.20477055
83	0xbb1c115e	-0.0023814063
84	0x3e0724b1	0.1319759
85	0x3c574183	0.013138178
86	0x3c14867c	0.009065267
87	0x3e718a25	0.23587854
88	0x3ea0a734	0.31377566
89	0x3ed77bef	0.4208674
90	0xbd113c15	-0.03545769
91	0x3b971f19	0.0046118614
92	0x3dbe75e4	0.092998296
93	0x3f80fe3a	1.0077584
94	0xbe80c1ef	-0.2514796
95	0xbdde374a	-0.10850389
96	0x3d15856c	0.036504194
97	0x3b924d55	0.004464785
98	0x3cb94673	0.0226166
99	0xbe8194b7	-0.25308773
100	0xbb04732f	-0.0020210256
101	0x3f097b95	0.53704196
102	0x3f8859b9	1.0652381
103	0xbdde973e	-0.10868691
104	0xbd688539	-0.056767676
105	0xbc6334b1	-0.013867543
106	0xbd7354ff	-0.05940723
107	0xbd31d244	-0.043413416
108	0xbf8e51d9	-1.1118728
109	0xbf3efb73	-0.7460243
110	0xbf020f12	-0.50804245
111	0x3f67adab	0.9049937
112	0xbd0ba3c6	-0.034091733
113	0xbdab9498	-0.083779514
114	0xbdfd85db	-0.123790465
115	0xbf346ad6	-0.7047552
116	0xbf2380f0	-0.6386862
117	0x3f003000	0.5007324
118	0x3ef798ab	0.48358664
119	0x3dafa277	0.085759096
120	0x3ebe9205	0.3722078
121	0x3da0a2b9	0.07843537
122	0x3d89aa44	0.06721929
123	0xbf3fc2e6	-0.74906766
124	0xbf3fbb2f	-0.74894994
125	0xbf2c4f6a	-0.67308676
126	0xbd3afce1	-0.04565132
127	0x3ee41d7e	0.4455375
128	0x3f1459b4	0.57949376
129	0x3f96204e	1.1728609
130	0x3f200b21	0.6251698
131	0x3ea811e5	0.32826152
132	0x3e90603a	0.28198415
133	0x3f233721	0.63755995
134	0x3f07caf1	0.5304404
135	0xbe8e765d	-0.2782468
136	0x3ea07ff6	0.31347626
137	0x3f012097	0.50440353
138	0x3f1c7e69	0.61130387
139	0x3e0fd4ec	0.14046067
140	0x3e2094e3	0.15681796
141	0x3ef0c239	0.4702318
142	0x3f24d3f8	0.6438594
143	0x3ea4376b	0.3207353
144	0xbf983451	-1.1890966
145	0xbf729610	-0.9476023
146	0xbf568584	-0.8379748
147	0xc0675e94	-3.6151476
148	0xbf1fa526	-0.6236137
149	0xbf4b46f7	-0.7940516
150	0xbf2d0581	-0.67586523
151	0xbf826e0d	-1.0189835
152	0xbf7cda9c	-0.9877107
153	0xbf946053	-1.1591896
154	0xbf3d508e	-0.7395104
155	0xbf6a276c	-0.91466403
156	0xbf245dc4	-0.64205575
157	0xbefb4905	-0.49079147
158	0xbee5f571	-0.4491382
159	0xbf8c856c	-1.0978217
160	0xbf59fef2	-0.8515464
161	0xbf53fd7b	-0.82808656
162	0x3e27a46c	0.16371316
163	0xbdf3919e	-0.11893009
164	0x3d508ab2	0.05091352
165	0xbf8d4edb	-1.103969
166	0xbe96a58f	-0.29423186
167	0x3c39e8d6	0.011347016
168	0xbdebc5d1	-0.1151234
169	0xbd2c5f65	-0.042083163
170	0x3a93420f	0.0011234897
171	0xbebf7d6d	-0.3740038
172	0x3e1240b6	0.14282498
173	0x3f11ac9e	0.5690402
174	0x3ebb715a	0.36609918
175	0xbe3d0e06	-0.18462381
176	0xbeac1feb	-0.336181
177	0x3d7c481e	0.061592214
178	0x3dfd9e06	0.12383656
179	0xbdb68866	-0.08912735
180	0x3d344168	0.04400769
181	0xbf1e9a21	-0.6195393
182	0xbf2b569c	-0.6692903
183	0x3f3bbf1b	0.7333848
184	0x3dbdaca5	0.09261445
185	0x3d4c7798	0.04991874
186	0x3d40ea82	0.047098644
187	0xbf35eedc	-0.71067595
188	0xbf3c9145	-0.73659164
189	0xbf19c67e	-0.600685
190	0xbf0b10fe	-0.54322803
191	0xbd1eec3b	-0.038799506
192	0x3ccb4314	0.024812259
193	0x3c2dcbe8	0.010607697
194	0xbe2f2085	-0.17102249
195	0xbf32b4c3	-0.6980707
196	0xbf2fd82e	-0.6868924
197	0xbf2cab9a	-0.67449343
198	0xbe91738e	-0.28408474
199	0xbd648dce	-0.055799298
200	0xbe2703c6	-0.16310033
201	0xc0172325	-2.36152
202	0x3e6185ab	0.22023647
203	0xbb869d6a	-0.0041081207
204	0x3c4794d1	0.012181477
205	0xbe05faf0	-0.13084006
206	0xbde79b79	-0.11308951
207	0xbe654eca	-0.22393337
208	0xbbc4c112	-0.006004461
209	0xbcc3b62d	-0.02389058
210	0x3ee6a058	0.45044208
211	0xbdaffce1	-0.08593155
212	0xbe8625eb	-0.26200804
213	0xbe2a6a97	-0.16642223
214	0xbd9a04d5	-0.07520453
215	0x3dc2b5f9	0.09507365
216	0xc00a89f3	-2.1646698
217	0xbed44569	-0.41459206
218	0xbea49d2d	-0.32151166
219	0xbed1e7ef	-0.40997264
220	0xbebee563	-0.37284383
221	0xbb9a1df6	-0.0047032787
222	0xbe92045d	-0.28518954
223	0xbece81d1	-0.40333417
224	0xbefbadc7	-0.4915602
225	0x3d381174	0.04493852
226	0x3dcdbad2	0.10045399
227	0xbdaf307a	-0.08554168
228	0xbdda2ce2	-0.10653092
229	0x3c96bf05	0.018401632
230	0xbd865b52	-0.06560387
231	0xbe8ab0aa	-0.2708791
232	0xbea2f397	-0.3182647
233	0xbe73e9f5	-0.23819716
234	0x3d87c9fa	0.06630321
235	0xbe5042bc	-0.20337957
236	0xbe639b6f	-0.22227262
237	0xbe85ec3a	-0.2615679
238	0xbedcf18b	-0.43153033
239	0xbec92710	-0.39287615
240	0xbe7551aa	-0.23956934
241	0xbe901e7e	-0.28148264
242	0xbe7b3038	-0.24530113
243	0x3d0aa724	0.033850804
244	0xbf20fed2	-0.62888825
245	0xbf08fff2	-0.5351554
246	0xbce3973b	-0.027782073
247	0x3c86043f	0.016359447
248	0x3d199b79	0.037501786
249	0xbe0f677f	-0.14004324
250	0xbe853a25	-0.26020923
251	0xbe97b651	-0.29631284
252	0xbe1b9d1d	-0.15196653
253	0x3f051082	0.51978314
254	0x3ef22841	0.47296336
255	0x40030cf4	2.0476656

rnn.weight_hh_l0 f4 [192, 64]
0	0xbe980adc	-0.29695785
1	0x3ec79095	0.38977495
2	0x3f95181b	1.1647981
3	0x3f9c0e0f	1.219179
4	0x3f81cded	1.0140969
5	0xbeb1bec4	-0.34715855
6	0x3e9fa4cc	0.31180418
7	0xbf8f324f	-1.1187228
8	0xbf772184	-0.96535516
9	0xbfb4eafe	-1.4134214
10	0x3f5aac36	0.85419023
11	0xbe88b899	-0.26703337
12	0xbef4e529	-0.47831085
13	0x3e26849b	0.16261522
14	0xbd819dd2	-0.0632893
15	0x3fd1fe79	1.6405784
16	0xbca9fa0c	-0.020749114
17	0x3fa13298	1.2593565
18	0x3eb819bd	0.35957137
19	0xbe8bde44	-0.27318013
20	0xbe33503d	-0.17511077
21	0xbf0e7cd6	-0.55659235
22	0x3eb34ccd	0.35019532
23	0x3f8633c5	1.0484549
24	0x3fa120b7	1.2588109
25	0xbd626d3c	-0.055279955
26	0x3f161b11	0.5863505
27	0x3f73f3a7	0.9529366
28	0xbf9b1a55	-1.2117411
29	0x3f35b5bb	0.70980424
30	0xbf8377d1	-1.027094
31	0xbf1c9715	-0.6116803
32	0x3e7056fd	0.23470683
33	0x3e53f095	0.20697244
34	0xbec6142f	-0.38687274
35	0xbf320c6f	-0.6955022
36	0xbf32815d	-0.6972864
37	0xbdd56724	-0.10420063
38	0x3d8f777a	0.0700521
39	0xbf074b4d	-0.52849275
40	0xbef9027b	-0.48634705
41	0x3f02b5cf	0.5105867
42	0x3e5da430	0.21644664
43	0xbf4a8f14	-0.7912457
44	0xbfa9e788	-1.3273783
45	0xbe9c15eb	-0.30485472
46	0xbf521df0	-0.8207693
47	0xbf6cccb8	-0.92499876
48	0xbfb4a1e0	-1.41119
49	0x3f16fd58	0.5898032
50	0xbf73edd9	-0.952848
51	0xbdc21a8b	-0.09477719
52	0x3fa28768	1.2697573
53	0x3f32be06	0.698212
54	0x3d81774d	0.06321583
55	0xbfcdcbdb	-1.6077837
56	0x3f92854a	1.1446927
57	0xbe5b7005	-0.21429451
58	0x3e4a504a	0.1975719
59	0xbf320fa8	-0.6955514
60	0x3ff0d3cc	1.8814635
61	0x3e431cc8	0.19053948
62	0x3d44b3e4	0.04802312
63	0x3e21ceb4	0.15801507
64	0xbfb72522	-1.4308207
65	0x404a5263	3.1612785
66	0x3fa9732e	1.3238275
67	0x3e580e73	0.21099262
68	0xbf952b06	-1.1653755
69	0xbe88c397	-0.26711723
70	0x3dbb466d	0.09144292
71	0xbf933da4	-1.1503186
72	0x3c8ab809	0.016933458
73	0xbfa9e5f0	-1.3273296
74	0x3eacbaed	0.33736363
75	0x3f634d5d	0.8878992
76	0xbdf4e93b	-0.11958548
77	0xbe4be136	-0.1991013
78	0xbfd70a7d	-1.6800076
79	0x3e4face5	0.20280798
80	0xbf9de530	-1.2335567
81	0x3ee206d2	0.44145828
82	0xbe5804be	-0.21095559
83	0x3f4dbcc5	0.80366164
84	0x3d43ef91	0.04783589
85	0x3e920a71	0.2852359
86	0xbf35c901	-0.7100983
87	0xbf284039	-0.65722996
88	0x3f8f9ad5	1.1219126
89	0xbf1263b2	-0.5718337
90	0xbedb9d38	-0.42893386
91	0xbf0c02ff	-0.5469207
92	0x3f60b159	0.8777061
93	0xbf355e37	-0.70846885
94	0xbf438f19	-0.76390225
95	0xbe8bf75b	-0.27337155
96	0xbf35497d	-0.7081526
97	0xbf8a353c	-1.0797496
98	0x3e4c41c9	0.1994697
99	0xbf30f9f0	-0.69131374
100	0xbe9a6da3	-0.3016177
101	0xbf994f14	-1.1977258
102	0xbec89878	-0.39178824
103	0x3f635bc0	0.88811874
104	0xbf99b155	-1.2007242
105	0xbfb52bd9	-1.4154006
106	0x402a78ae	2.6636157
107	0x3f3f481c	0.74719405
108	0xbefb3abc	-0.49068248
109	0x3ee5854e	0.44828266
110	0x3f27b1de	0.6550578
111	0xbf55dbb8	-0.8353839
112	0xbf2423c3	-0.6411707
113	0xbee179c7	-0.4403822
114	0xbf0066c3	-0.501568
115	0xbf3fee71	-0.7497321
116	0xbe786e84	-0.24260908
117	0x3f3a9627	0.72885364
118	0x3e9ce1c9	0.3064101
119	0x3ed995b3	0.42497024
120	0xbdaf0a21	-0.08546854
121	0xbedb9ef5	-0.42894712
122	0xbe82c787	-0.25542852
123	0x3e7b7695	0.24556954
124	0x3f0cf649	0.550633
125	0xbede7565	-0.4344894
126	0x3ffcb1fe	1.9741819
127	0x3f8db927	1.1072129
128	0x3cd325ae	0.025774803
129	0x3f122494	0.57087064
130	0xc00d35d7	-2.2064111
131	0x3dedf6ae	0.11619316
132	0xbecf931e	-0.4054193
133	0x3f0571ff	0.5212707
134	0xbe2c979d	-0.16854711
135	0x3f10640a	0.5640265
136	0xbf5e30c1	-0.8679314
137	0x3f0e4085	0.555672
138	0x3f893ae5	1.0721098
139	0xbf219b76	-0.6312784
140	0xbf078cc7	-0.52949184
141	0x3f5074d3	0.8142826
142	0x3e992428	0.29910398
143	0x3eb683ef	0.35647532
144	0x3dea0f79	0.114287324
145	0xbeb607ea	-0.35552913
146	0x3e2879d7	0.16452728
147	0xbdc67ea9	-0.09692127
148	0xbea43431	-0.3207107
149	0xbf8fea01	-1.1243287
150	0x3d535888	0.0515981
151	0xbeb942b9	-0.36183718
152	0x3f4c1a85	0.79727966
153	0x3de1eb7e	0.11031245
154	0xbe2dd729	-0.16976608
155	0x3f4c9a60	0.7992306
156	0x3e9ee319	0.31032637
157	0xbf6c5608	-0.92318773
158	0x3f25220a	0.64505064
159	0xbe6f77fd	-0.23385616
160	0x3f475e96	0.778787
161	0xbf8b5ee5	-1.0888335
162	0x3f01e0b6	0.50733507
163	0xbf9f9ece	-1.2470338
164	0xbed822e4	-0.4221412
165	0xbf423464	-0.7586119
166	0x3f294ae6	0.6612991
167	0x3f71bb28	0.944262
168	0xbec918d3	-0.39276752
169	0x3f913462	1.1344111
170	0xbf0330c1	-0.5124627
171	0x3bbee796	0.005825947
172	0xbec18be3	-0.37802038
173	0x3f23bb56	0.63957727
174	0xbe9f09a6	-0.3106205
175	0xbee5a283	-0.4485055
176	0x3e992a55	0.2991511
177	0xbfd0626b	-1.6280035
178	0x3f03151d	0.5120409
179	0xbc350933	-0.011049557
180	0xbc93cd22	-0.01804215
181	0x3e45f562	0.19331887
182	0x3e367766	0.17818984
183	0xbdcec8bc	-0.10096881
184	0xbf2137b2	-0.6297561
185	0xbecb060d	-0.39653054
186	0x3ee361e4	0.44410622
187	0x3f7bf55a	0.9842125
188	0x3f2a56cc	0.6653869
189	0x3b214267	0.002460623
190	0x3fc4be03	1.5370487
191	0xbd0ef4fd	-0.034901608
192	0x4004130b	2.0636623
193	0x3f0e32ce	0.5554627
194	0x3e9c67f2	0.30548054
195	0xbe9f1c6d	-0.31076375
196	0x3e96edab	0.294782
197	0xbb670d29	-0.0035255647
198	0x3c7860fb	0.015159841
199	0x3f1a2368	0.60210276
200	0xbf95de7c	-1.1708522
201	0x3f66c7d6	0.90148675
202	0x3f13e339	0.5776859
203	0x3fa6de91	1.3036672
204	0x3eb035cc	0.34416044
205	0x3f7b0134	0.9804871
206	0x3ef74274	0.48292887
207	0xbe4923be	-0.19642541
208	0x3e0bd8da	0.13656941
209	0xbe6d516d	-0.23175593
210	0x3f2832b0	0.65702343
211	0x3dc22515	0.09479729
212	0x3f9121fd	1.1338497
213	0x3eaced21	0.33774665
214	0x3e361c6e	0.17784283
215	0xbf4af75e	-0.792837
216	0x3f2aa1d2	0.6665317
217	0x3c97694f	0.018482832
218	0x3eb01e93	0.34398326
219	0x3dcadfb2	0.09905948
220	0x3f4743b2	0.7783767
221	0x3e67e9b2	0.22647741
222	0x3f43a86f	0.76428884
223	0xbea58af2	-0.3233257
224	0x3fb855ff	1.4401244
225	0x3db4cecc	0.08828506
226	0xbf2012a4	-0.62528443
227	0xbe1c9f42	-0.15295127
228	0x3f0daf7f	0.5534591
229	0xbeecff8a	-0.4628871
230	0xbeb2a9fe	-0.3489532
231	0xbe2a7424	-0.16645867
232	0xbeaf48ae	-0.34235138
233	0xbf767aea	-0.962813
234	0x3f0f3a8c	0.5594871
235	0x3f9ab74b	1.2087187
236	0x3f9b17db	1.2116655
237	0xbf6559d1	-0.89590174
238	0x3e0208b3	0.12698631
239	0x3f897d83	1.0741428
240	0x3e1b8aa7	0.1518961
241	0xbff33d81	-1.9003145
242	0x3fb988c1	1.4494859
243	0xbf283dce	-0.65719306
244	0x3facdba9	1.3504535
245	0x3e9be0c1	0.3044491
246	0xbea3145a	-0.31851465
247	0x3f489a60	0.7836056
248	0x3f8cf691	1.1012746
249	0x3d89b2d4	0.06723562
250	0xbd476a52	-0.04868538
251	0xbf83f0f8	-1.0307913
252	0xbf0868c5	-0.53284866
253	0xbf5dc00f	-0.86621183
254	0xbf1b27c7	-0.6060757
255	0xbe41e58d	-0.18935223

rnn.bias_ih_l0 f4 [192]
0	0x3eaf1632	0.3419662
1	0xbdc2e934	-0.09517136
2	0x3e029d6d	0.12755366
3	0xbef9f608	-0.4882052
4	0xbe75de23	-0.2401052
5	0xbd520050	-0.05126983
6	0x3ccefa74	0.02526591
7	0x3e933ab6	0.2875573
8	0xbf0f4899	-0.5597015
9	0xbbc99c36	-0.006152655
10	0xbea869d6	-0.32893246
11	0xbd6a744b	-0.057239812
12	0x3e5af1c5	0.2138129
13	0x3cdb78ae	0.026790943
14	0xbde63da0	-0.11242223
15	0xbe68ca9d	-0.22733541
16	0xbd99391e	-0.07481597
17	0xbee63519	-0.44962385
18	0xbd720880	-0.059090137
19	0xbe8e62e6	-0.2780983
20	0x3f1bf694	0.60923123
21	0xbe39e9a9	-0.1815554
22	0x3c52d0a7	0.012867129
23	0xbed7975b	-0.42107663
24	0x3c881373	0.016610837
25	0xbe423fb6	-0.18969616
26	0xbe35a97f	-0.17740439
27	0xbef0d8f2	-0.47040516
28	0x3cb58044	0.022155888
29	0xbe8a389c	-0.26996315
30	0xbe6b1869	-0.2295853
31	0xbe13048c	-0.14357203
32	0x3e587749	0.21139254
33	0xbdfe9abf	-0.12431859
34	0x3e5d24db	0.2159609
35	0xbe823a07	-0.25434896
36	0xbc9cfe98	-0.019164369
37	0xbe0cc40e	-0.13746664
38	0x3e8001a0	0.2500124
39	0xbf161df9	-0.58639485
40	0xbea4f240	-0.32216072
41	0x3e620b5e	0.22074649
42	0x3ccb7d83	0.024840122
43	0xbf09f600	-0.5389099
44	0xbf21dd3e	-0.63228214
45	0xbe5de800	-0.21670532
46	0xbd2ef51d	-0.042714227
47	0xbeda74b9	-0.42667177
48	0xbdc612eb	-0.09671577
49	0x3d8fcd41	0.07021571
50	0x3dcffefe	0.10156058
51	0xbf13706d	-0.57593423
52	0x3e11ee29	0.14251007
53	0x3ec35423	0.3815013
54	0xbef73ceb	-0.48288664
55	0xbec78f70	-0.38976622
56	0xbe5eb5a5	-0.2174898
57	0xbf053b24	-0.52043366
58	0x3e5ac1bd	0.21362968
59	0x3eb0a016	0.34497136
60	0x3ec8af3d	0.39196196
61	0xbeba5046	-0.3638937
62	0x3cc28864	0.023746677
63	0xbee47d85	-0.44627014
64	0x3efdceef	0.4957194
65	0x3f03d3b6	0.5149492
66	0x3ef35196	0.47523183
67	0xbebbef32	-0.3670593
68	0x3eab7ba6	0.33492774
69	0x3ec2bb5f	0.38033578
70	0x3ee4dbb1	0.4469886
71	0x3e8452a6	0.25844306
72	0x3d55ecc0	0.052227736
73	0x3e4e1a27	0.20127164
74	0xbe045d26	-0.12926158
75	0x3e416637	0.18886648
76	0x3eb96bd4	0.3621508
77	0xbd4667b8	-0.048438758
78	0x3e9ac441	0.30227855
79	0x3f13e18e	0.57766044
80	0x3e29144a	0.16511646
81	0x3eb04bdf	0.34432885
82	0x3edad94f	0.42743918
83	0xbdc96299	-0.09833259
84	0x3f02da9d	0.5111483
85	0x3f0928f7	0.5357813
86	0xbd847fb3	-0.06469669
87	0x3e118fea	0.14215055
88	0x3f0454c1	0.51691824
89	0xbc56feba	-0.013122255
90	0x3ddfbbab	0.10924467
91	0x3e0c1649	0.13680376
92	0x3e98f3e9	0.2987359
93	0x3e8cd18c	0.27503622
94	0xbebb1952	-0.36542755
95	0x3cd652a2	0.02616245
96	0x3f3b6fe0	0.7321758
97	0x3de0452c	0.109506935
98	0x3e7f38d5	0.24924023
99	0x3ef4110d	0.4766926
100	0x3f2a9255	0.66629535
101	0x3eb2858e	0.3486752
102	0x3e38f18f	0.18060897
103	0xbdf766be	-0.120801434
104	0x3e6d83c1	0.23194791
105	0x3f235837	0.6380648
106	0x3ef27808	0.47357202
107	0x3db292e6	0.08719425
108	0x3e74d150	0.23907971
109	0x3ee26563	0.44217977
110	0x3d69926b	0.0570244
111	0x3ce811bb	0.028328767
112	0x3e3b527a	0.18293181
113	0x3ea44f8e	0.32091945
114	0x3f0c1e00	0.54733276
115	0x3eca3964	0.3949691
116	0x3edc1076	0.4298131
117	0x3eb50f7d	0.3536338
118	0x3f24f39d	0.64434224
119	0x3dd024d2	0.10163273
120	0x3e1aae35	0.15105517
121	0x3e9b4b95	0.30331102
122	0x3ed2f499	0.41202238
123	0x3efc7823	0.49310407
124	0x3f21e50d	0.6324013
125	0x3e287869	0.16452183
126	0x3d4bce28	0.049757153
127	0x3eeed209	0.4664462
128	0x3bc0dcd7	0.005885701
129	0x3e3d982a	0.18515077
130	0x3c9d59db	0.019207885
131	0xbe48cb34	-0.19608766
132	0x3ed61009	0.4180911
133	0x3d74e248	0.05978611
134	0x3d9ec931	0.07753218
135	0xbe28ce03	-0.16484837
136	0xbe9d6dad	-0.30747738
137	0xbd8b7e94	-0.06811252
138	0xbed42b92	-0.41439492
139	0x3e212428	0.15736449
140	0x3db5d29a	0.0887806
141	0x3e0dfeec	0.13866776
142	0x3e623860	0.22091818
143	0xbe576ad6	-0.21036848
144	0xbdfa6ec3	-0.12228157
145	0xbd471dd5	-0.048612434
146	0xbeb2905d	-0.34875765
147	0xbea32bc6	-0.31869334
148	0x3f0aae1e	0.5417193
149	0x3eb2ccb6	0.34921807
150	0x3e0b43aa	0.1360003
151	0xbe792f6a	-0.24334493
152	0x3d2b591e	0.041833036
153	0x3e1ef017	0.15521275
154	0x3d9e3f48	0.07726914
155	0xbe6d04f8	-0.23146427
156	0xbe0cd059	-0.13751353
157	0x3ebcfd46	0.36911982
158	0xbe6a2f97	-0.22869717
159	0xbe862b3c	-0.2620486
160	0xbbb417f2	-0.0054960186
161	0x3cb3cf7b	0.02194952
162	0x3d8834f8	0.06650728
163	0x3e7437c2	0.23849395
164	0x3e3e96b0	0.1861217
165	0x3e2742f2	0.16334131
166	0x3e90950b	0.2823871
167	0x3e7023ba	0.23451129
168	0xbda203f4	-0.0791091
169	0xbe196da0	-0.14983225
170	0x3eff5523	0.49869642
171	0x3eaff347	0.34365293
172	0x3d69db84	0.057094112
173	0x3c837239	0.016045677
174	0x3e742fec	0.23846406
175	0x3d82bf38	0.06384128
176	0x3e05cbb9	0.13065995
177	0xbeab2d77	-0.33433124
178	0xbe880933	-0.26569518
179	0x3eb34601	0.35014346
180	0xbf246ee9	-0.64231735
181	0xbd70691f	-0.058694
182	0x3e3eaac4	0.1861983
183	0x3ebbba09	0.3666537
184	0xbe4dc09d	-0.20093007
185	0x3e40c52a	0.18825212
186	0x3e623f04	0.22094351
187	0x3e947889	0.2899821
188	0x3eb24306	0.3481676
189	0xbe4fdef0	-0.20299888
190	0xbed60d73	-0.41807136
191	0x3e065c6b	0.13121192

rnn.bias_hh_l0 f4 [192]
0	0x3ea4d2bf	0.32192037
1	0x3bb365c0	0.005474776
2	0x3d91cf25	0.07119588
3	0xbeb6bfd3	-0.35693225
4	0xbdfd7137	-0.1237511
5	0x3db57deb	0.088619076
6	0x3bcafbad	0.006194553
7	0x3e0e072c	0.13869923
8	0xbf0e8248	-0.55667543
9	0x3d8bb527	0.068216614
10	0xbe00cc0a	-0.12577835
11	0xbde8a6a1	-0.11359907
12	0x3da6cc2a	0.0814441
13	0xbd376953	-0.04477818
14	0xbe0cf2ae	-0.1376445
15	0xbea4aa49	-0.32161167
16	0xbd31963a	-0.043356158
17	0xbee3bb7f	-0.44478986
18	0x3e1feec9	0.15618433
19	0xbddaf3bb	-0.10691019
20	0x3f0335e4	0.51254106
21	0xbe31b233	-0.17353134
22	0x3da40bf1	0.0801009
23	0xbf06eebd	-0.52708036
24	0xbde11f1f	-0.10992264
25	0xbe328bb8	-0.17436111
26	0xbea5174e	-0.32244343
27	0xbea2fae8	-0.3183205
28	0xbdf60072	-0.12011804
29	0xbe57fa13	-0.2109149
30	0xbec7005b	-0.3886746
31	0xbe98fbdb	-0.2987965
32	0x3e8c332e	0.27382797
33	0xbd7551a4	-0.05989231
34	0x3e1dd65a	0.154138
35	0xbe0abe6f	-0.13549207
36	0x3cb4e9fc	0.022084229
37	0xbcdf82ec	-0.027284108
38	0x3cf80e86	0.030280363
39	0xbf267fd6	-0.6503881
40	0xbe3561b4	-0.17713052
41	0x3ec3f00d	0.38269082
42	0x3e40fc0d	0.1884615
43	0xbf11fa1e	-0.57022274
44	0xbf203afa	-0.6258999
45	0xbe2e17c8	-0.1700126
46	0x3bb1762f	0.0054157
47	0xbeb41a5a	-0.35176355
48	0xbe7d9d61	-0.24767067
49	0x3e0315b9	0.12801255
50	0x3de603eb	0.11231216
51	0xbf09c6e2	-0.53819096
52	0x3e0075e7	0.12544976
53	0x3e9c2557	0.30497238
54	0xbec5a01f	-0.38598725
55	0xbeb1260d	-0.34599343
56	0xbe734523	-0.23756842
57	0xbedc815d	-0.43067446
58	0x3e4e0d18	0.20122182
59	0x3f07af1f	0.5300159
60	0x3e9dd955	0.30829874
61	0xbe9998b6	-0.29999322
62	0x3d75a24e	0.05996924
63	0xbf02f899	-0.5116058
64	0x3f047e60	0.5175533
65	0x3f14944b	0.5803878
66	0x3eef54c6	0.46744365
67	0xbea757bd	-0.32684126
68	0x3ebdcaa6	0.3706867
69	0x3eb37c88	0.35055947
70	0x3e962312	0.29323632
71	0x3dfd95aa	0.12382062
72	0x3e2ce171	0.16882874
73	0x3e799097	0.24371563
74	0xbdd24213	-0.10266509
75	0x3ebe9ae0	0.37227535
76	0x3ed685a7	0.41898844
77	0xbd9e0f17	-0.07717722
78	0x3eb1d739	0.34734514
79	0x3f1c8e27	0.6115441
80	0x3e19bf7c	0.15014452
81	0x3ea36839	0.31915453
82	0x3ea0a8ec	0.31378877
83	0x3c67e240	0.014153063
84	0x3f154236	0.58304155
85	0x3ebdc701	0.3706589
86	0xbd488220	-0.048952222
87	0x3e06f233	0.13178329
88	0x3f353c48	0.70795107
89	0xbda78f3d	-0.081816174
90	0x3e83d87f	0.2575111
91	0x3e9588af	0.29205844
92	0x3eb38d5e	0.35068792
93	0x3e91d567	0.28483126
94	0xbe795f51	-0.24352767
95	0x3db94fe1	0.09048439
96	0x3f0e656c	0.5562351
97	0x3dca2dc3	0.098720096
98	0x3e5838d7	0.21115433
99	0x3edc28fb	0.43000016
100	0x3f33475c	0.7003076
101	0x3e5ad5fc	0.21370691
102	0x3e9e1cab	0.30881247
103	0xbe180e90	-0.14849305
104	0x3e240283	0.16016583
105	0x3f4693ab	0.77569073
106	0x3ed556f7	0.4166791
107	0x3da1cd49	0.07900483
108	0x3e25501a	0.16143838
109	0x3f2080d7	0.62696594
110	0x3d86ec1b	0.06588002
111	0xbdec7486	-0.115456626
112	0x3e5e1a20	0.21689653
113	0x3edaee81	0.4276009
114	0x3f3b32c5	0.73124343
115	0x3ef8f526	0.48624533
116	0x3eecc43a	0.4624346
117	0x3edda81a	0.43292314
118	0x3ef62a61	0.48079208
119	0x3d681556	0.056660973
120	0x3cca6a3e	0.024708863
121	0x3eaae7d7	0.33380005
122	0x3ed7b25c	0.42128265
123	0x3ed188e8	0.40924764
124	0x3f345414	0.70440793
125	0x3cd32faf	0.025779573
126	0x3dcd588f	0.10026657
127	0x3edca9bb	0.43098244
128	0x3d0fb00d	0.035080004
129	0xbb1fc68c	-0.0024379818
130	0x3da57a83	0.08080008
131	0x3ea7c8fe	0.32770532
132	0x3dbfb3dd	0.09360478
133	0x3e4680d7	0.19385086
134	0xbe8647fc	-0.26226795
135	0x3e69fbee	0.2285001
136	0xbee6ab8d	-0.45052758
137	0x3e55a5b4	0.20863992
138	0xbed11cdf	-0.4084234
139	0x3e8d5a95	0.2760817
140	0x3ef2cefc	0.47423542
141	0x3e9c801a	0.30566484
142	0x3bc724e3	0.0060773953
143	0x3f00d8ea	0.50330985
144	0x3f2b524d	0.66922456
145	0xbeaf9c5a	-0.34298974
146	0x3dcbbbf5	0.09947959
147	0xbe5055d3	-0.2034524
148	0x3e86c351	0.2632089
149	0x3e745f9b	0.23864596
150	0xbe9d3074	-0.3070103
151	0xbef692ed	-0.4815897
152	0xbdf23a94	-0.11827579
153	0x3e1c1e10	0.15245843
154	0x3da4a89b	0.080399714
155	0x3cf79ad6	0.030225199
156	0xbd5de7b5	-0.05417605
157	0xbd8e8e7d	-0.06960771
158	0x3d14a169	0.036286745
159	0x3e4db5ab	0.20088832
160	0x3ee88881	0.45416644
161	0xbd9c70a3	-0.07638671
162	0xbe34a6ae	-0.17641708
163	0x3ed55fcb	0.41674647
164	0x3eab18ba	0.33417302
165	0x3dae2a50	0.08504164
166	0x3e9f0d23	0.3106471
167	0x3e8070b4	0.25085986
168	0x3d930a88	0.07179743
169	0x3be78efb	0.007066605
170	0x3f2383a0	0.6387272
171	0x3c128e16	0.008945009
172	0xbeb9b376	-0.3626973
173	0x3e954c2e	0.29159683
174	0x3e330441	0.17482091
175	0xbb75494b	-0.003742772
176	0xbd2959d0	-0.041345417
177	0xbd3e869b	-0.04651509
178	0xbe9d18f3	-0.30683097
179	0x3e169df1	0.14708687
180	0xbec50aaf	-0.38484713
181	0x3d1c4e7c	0.038160786
182	0xbf1ac680	-0.60459137
183	0x3cb47f37	0.022033317
184	0xbd25f18e	-0.040513568
185	0xbd5744da	-0.052555896
186	0x3e5a2aa8	0.21305335
187	0x3e8f70bc	0.28015697
188	0x3ed70e35	0.42003027
189	0x3e818693	0.25297984
190	0xbf00e7a8	-0.5035348
191	0x3ec848b9	0.39117983

rnn.weight_ih_l0_reverse f4 [192, 18]
0	0xbf59c2e3	-0.85063
1	0x3f08c0ee	0.5341939
2	0x3f356a51	0.7086535
3	0xbedaf34d	-0.4276375
4	0x3eb0c646	0.3452627
5	0x3f82cccd	1.021875
6	0x3f3066ee	0.6890706
7	0x3f40acd0	0.7526369
8	0x3f400116	0.75001657
9	0x3e1378bb	0.14401524
10	0x3f4a4463	0.790106
11	0x3f5c1847	0.85974544
12	0xbe92c650	-0.28666925
13	0x3ecae363	0.39626607
14	0x3e8347b8	0.25640655
15	0x3f084f86	0.53246343
16	0x3f2632d4	0.6492131
17	0x3f2df2b5	0.67948467
18	0x3f37fd80	0.71871185
19	0x3de4258c	0.11139974
20	0xbb167cd9	-0.0022962599
21	0x3dfe5b33	0.124197386
22	0xbe1913e8	-0.14949
23	0xbdcb4e74	-0.09927073
24	0xbe7dcd42	-0.24785331
25	0x3e24c045	0.1608897
26	0x3df6fc21	0.120598085
27	0x3eaf961c	0.34294212
28	0x3dff521f	0.12466835
29	0xbe3d8b49	-0.18510164
30	0x3e96e9e6	0.29475325
31	0x3e8f99ec	0.2804712
32	0x3e2d3527	0.16914807
33	0x3d50a770	0.05094093
34	0xbbfcc0db	-0.00771342
35	0xbd464646	-0.04840686
36	0x3ebf99fa	0.37422162
37	0xbdff6c6c	-0.12471852
38	0xbe461da2	-0.19347242
39	0x4040bfb0	3.0116997
40	0x3d98a9ad	0.07454238
41	0x3e5aa345	0.21351345
42	0x3c2b6c95	0.0104629
43	0x3c46bf9a	0.012130642
44	0xbdaab975	-0.08336154
45	0x3edb9c51	0.42892697
46	0xbf05df35	-0.5229371
47	0x3e0df0c2	0.13861373
48	0x3aff7853	0.0019490815
49	0x3eaff8e0	0.34369564
50	0x3e87e381	0.2654076
51	0xbd16472c	-0.03668897
52	0x3cbce050	0.02305618
53	0xbdd10885	-0.10206703
54	0xbe112bb2	-0.14176825
55	0x3d262d72	0.040570684
56	0x3d64325b	0.055712085
57	0xbf6f02e9	-0.93363816
58	0xbf02f0f2	-0.51148903
59	0xbec0a1a7	-0.3762333
60	0xbf0bb53d	-0.5457342
61	0x3d767917	0.060174074
62	0x3d443a31	0.04790706
63	0xbe567332	-0.20942381
64	0xbfc1a2e4	-1.5127835
65	0x3ed8d81d	0.4235238
66	0x3f6be7a5	0.92150337
67	0x3c0aff99	0.008483791
68	0x3cfa8d2a	0.03058489
69	0xbe3b31fa	-0.18280783
70	0xbbef79c7	-0.007308218
71	0xbd6f1823	-0.058372628
72	0x3f10b35e	0.5652369
73	0x3b140e9f	0.0022591723
74	0x3d9a5e22	0.07537486
75	0xbf7f09a5	-0.9962409
76	0x3e024860	0.12722921
77	0x3bf4fe9f	0.0074766423
78	0xbd8ff63a	-0.07029386
79	0xbd8f5d96	-0.07000272
80	0xbdb51689	-0.08842189
81	0xbe848bf7	-0.25888035
82	0x3ea795e2	0.3273154
83	0x3e490f23	0.1963468
84	0xbe962634	-0.29326022
85	0xbedf871d	-0.4365777
86	0xbee1b26c	-0.44081438
87	0xbc572046	-0.013130253
88	0xbe12fec7	-0.14355002
89	0xbd75f9f0	-0.060052812
90	0xbfa41603	-1.2819217
91	0xbfdb3462	-1.7125361
92	0xbfb4e37d	-1.4131924
93	0xc006ff6c	-2.1093397
94	0xbeef6bfb	-0.4676207
95	0xbf00e562	-0.5035001
96	0xbefb883b	-0.49127373
97	0xbfd134d7	-1.634425
98	0xbfcb16d1	-1.5866338
99	0xbf6513dc	-0.8948343
100	0xbed14aac	-0.40877283
101	0xbea5e47a	-0.32400876
102	0xbe8db20c	-0.276749
103	0xbe8f4102	-0.27979285
104	0xbea45639	-0.32097033
105	0xbfe770f8	-1.808135
106	0xbfc5307e	-1.5405424
107	0xbfaa420f	-1.330141
108	0x3e810172	0.25196415
109	0x3ec18f73	0.37804756
110	0x3ed95bb4	0.42452776
111	0x3fac5f3b	1.3466562
112	0x3f48e2f0	0.7847128
113	0x3ef3d723	0.47625074
114	0x3f568a70	0.8380499
115	0x3f00a523	0.5025198
116	0x3eab0f5f	0.33410165
117	0xbe7a33e3	-0.24433856
118	0xbea219bf	-0.31660268
119	0x3f20bfe1	0.62792784
120	0xbe8670b6	-0.26257867
121	0x3e4281e7	0.18994866
122	0x3dfe96e3	0.12431123
123	0x3eefd6be	0.46843523
124	0x3ed211d7	0.41029236
125	0x3e91c1b9	0.2846811
126	0x3e80ef57	0.25182602
127	0x3f674be6	0.90350187
128	0x3f31680c	0.6929939
129	0x3e651d72	0.22374514
130	0xbd2768e5	-0.04087152
131	0xbe815014	-0.25256407
132	0xbe476487	-0.19471942
133	0x3f43b8bd	0.76453763
134	0x3f6d23fc	0.9263303
135	0xbc6260bc	-0.013817009
136	0xbf0c8975	-0.5489724
137	0xbf1830cf	-0.59449476
138	0x3f6eb213	0.9324047
139	0x3dfe5003	0.12417605
140	0x3e48d032	0.1961067
141	0x3f436817	0.76330703
142	0x3f48da51	0.78458124
143	0x3f457bd5	0.7714208
144	0xbf471f1a	-0.7778183
145	0xbe68a077	-0.22717462
146	0xbe4daf0b	-0.20086305
147	0xbed68140	-0.41895485
148	0x3e04eadd	0.12980218
149	0xbe38f70b	-0.1806299
150	0xbd81238c	-0.06305608
151	0xbeba3aa2	-0.36372858
152	0xbe5093bf	-0.2036886
153	0xbf1e3aae	-0.6180829
154	0x3dac79cf	0.08421671
155	0xbf9a762a	-1.2067311
156	0xbecb3f48	-0.39696717
157	0xbe971713	-0.29509792
158	0xbe46c1f4	-0.19409925
159	0xbeba9ea3	-0.36449155
160	0xbe8df2c7	-0.27724287
161	0xbe96cb9d	-0.2945222
162	0xbf2b3bca	-0.66888106
163	0xbe8fca2d	-0.28083935
164	0xbe193478	-0.14961421
165	0xbfe11b1b	-1.7586397
166	0xbe8d90c5	-0.27649513
167	0xbf2c6596	-0.6734251
168	0xbf091997	-0.5355467
169	0xbe353346	-0.1769534
170	0xbe4a56ea	-0.19759718
171	0x3f21fc40	0.6327553
172	0x3f2bb5fa	0.6707455
173	0xbf7642dd	-0.96195775
174	0x3f17ab89	0.59246117
175	0xbe750003	-0.23925786
176	0xbe39e809	-0.1815492
177	0xbe923737	-0.2855775
178	0xbe784afd	-0.24247356
179	0xbea5e79e	-0.32403272
180	0x3eacc496	0.33743733
181	0xbcbb1c2f	-0.022840587
182	0xbe25efd2	-0.16204765
183	0x3e5515ef	0.20809148
184	0xbdbbd269	-0.09170992
185	0xbccd18a0	-0.025036156
186	0xbd61f151	-0.055161778
187	0xbe2f9d86	-0.17149934
188	0xbb82d2c4	-0.0039924104
189	0xbef79b89	-0.4836085
190	0xbf012d36	-0.5045961
191	0xbec0b346	-0.37636775
192	0xbeae46d4	-0.34038413
193	0x3db3424d	0.0875288
194	0xbe20e030	-0.1571052
195	0xbd14fc17	-0.036373224
196	0xbd9f03f5	-0.077644266
197	0xbd6b68dc	-0.05747305
198	0xbf08d16d	-0.5344456
199	0xbece4612	-0.40287834
200	0xbe918836	-0.28424233
201	0xc020c42f	-2.511974
202	0xbdbc6010	-0.0919801
203	0x3e2dcc18	0.16972387
204	0xbd8d907b	-0.06912323
205	0xbeab03e1	-0.33401397
206	0xbe894bd5	-0.26815668
207	0x3f57b03f	0.84253305
208	0x3fe82e11	1.8139058
209	0x3e6de46c	0.23231667
210	0x3e4c7a67	0.19968568
211	0x3ebff90e	0.374947
212	0x3ee8ae34	0.45445406
213	0xbe904b36	-0.2818238
214	0xbe920ab6	-0.28523797
215	0xbdc5b99e	-0.09654544
216	0xbf104f36	-0.56370866
217	0xbc41dcc2	-0.011832418
218	0xbd0588be	-0.03260111
219	0xbf43d0c1	-0.7649041
220	0xbf1583d0	-0.58404255
221	0x3e47e2ee	0.1952016
222	0xbdfce1ad	-0.12347732
223	0x3c715f65	0.0147322165
224	0x3c2eb0b1	0.010662244
225	0x3e484eaf	0.19561265
226	0xbf0e94f8	-0.5569606
227	0x3e4db568	0.20088732
228	0xbf418f7d	-0.7560957
229	0xbd40f484	-0.04710819
230	0xbeae8313	-0.34084377
231	0xbd4e2535	-0.050328452
232	0x3d9c053b	0.07618185
233	0x3ac4058f	0.001495527
234	0xbd2e79e9	-0.04259673
235	0xbf6b0484	-0.91803765
236	0xbf62d33e	-0.8860358
237	0x3faa543d	1.3306957
238	0xbf07a4a4	-0.52985597
239	0xbed8304b	-0.42224345
240	0xbec084a8	-0.3760121
241	0xbf583d50	-0.84468555
242	0xbf637735	-0.8885377
243	0xbf818d7d	-1.0121304
244	0x3e08579b	0.13314669
245	0xbed248c1	-0.41071132
246	0xbeb7ef0c	-0.35924566
247	0xbf06c830	-0.5264921
248	0xbf568528	-0.8379693
249	0xbf52fe4e	-0.8241929
250	0xbf6b60d3	-0.9194462
251	0xbf809f2f	-1.0048579
252	0xbe9c9315	-0.30580965
253	0xbe32e00c	-0.1746828
254	0xbe99b5e9	-0.300216
255	0x3f937304	1.1519475

rnn.weight_hh_l0_reverse f4 [192, 64]
0	0x3f1cf93c	0.613178
1	0x3e67ccac	0.2263667
2	0xbf02d297	-0.51102585
3	0xbc8de8d0	-0.017322928
4	0xbf3ed0fa	-0.7453762
5	0x3dd502b9	0.1040091
6	0x3f2385b1	0.6387587
7	0x3e92d748	0.28679872
8	0xbf6bb1ce	-0.92068183
9	0xbe171e49	-0.14757647
10	0xbfbf025e	-1.4922597
11	0x3eaa0c00	0.3321228
12	0xbfaf3f8a	-1.3691266
13	0x3f488a02	0.78335583
14	0xbf8b364c	-1.0875945
15	0x3f80ca82	1.00618
16	0x3da4d41a	0.08048268
17	0xbfcf2bc8	-1.6185236
18	0xbe5d9ec8	-0.21642601
19	0x3fcb8a5b	1.5901598
20	0x3f32c7d2	0.6983615
21	0x3e6a07ee	0.22854587
22	0xbf00cf53	-0.5031635
23	0x3f32258d	0.6958855
24	0x3f6e3399	0.9304748
25	0x3fd8396e	1.6892526
26	0xbef660cf	-0.48120734
27	0xbf8411bc	-1.0317912
28	0x3f26be04	0.6513369
29	0x3f784a5a	0.9698845
30	0xbf108499	-0.5645233
31	0xbf6d429d	-0.9267977
32	0xbf6077ef	-0.87683004
33	0xbe426704	-0.1898461
34	0xbf0f8e08	-0.560761
35	0x3e8bd197	0.27308342
36	0xbe447b00	-0.19187546
37	0xbe82f982	-0.25580984
38	0xbdceb443	-0.10092976
39	0x3f75b921	0.9598561
40	0xbe64b148	-0.22333252
41	0xbdde74a9	-0.10862095
42	0x3ea09190	0.31361055
43	0xbe808181	-0.25098804
44	0xbec8c9bb	-0.39216408
45	0x3f4f5060	0.8098202
46	0x3eb0219a	0.34400636
47	0x3e0e4b81	0.1389599
48	0xbf0b575e	-0.54430187
49	0x3e972f8e	0.2952847
50	0x3e590af2	0.21195582
51	0x3f35acec	0.7096698
52	0xbdb1a724	-0.08674458
53	0x3f211c10	0.62933445
54	0x3ed3b288	0.41347146
55	0x3e0f6263	0.14002375
56	0x3ee1a034	0.44067538
57	0x3ee475a6	0.4462101
58	0xbe09bbd2	-0.13450554
59	0x3eae671a	0.34063035
60	0xbe9bae07	-0.3040621
61	0xbf58c9be	-0.84682834
62	0x3ec46415	0.38357607
63	0xbb16d0a9	-0.0023012555
64	0xbf92c11f	-1.1465186
65	0x3fd98ac5	1.6995474
66	0x3ef8939d	0.4855012
67	0x3e96f267	0.29481813
68	0x3d6a9349	0.05726937
69	0x3eac7419	0.33682325
70	0x3efc3dc4	0.49265873
71	0x3d3fb178	0.046800107
72	0x3f01bcb7	0.5067858
73	0xbd8b9b1b	-0.068166934
74	0x3f70a893	0.94007224
75	0x3fbb39ac	1.4626975
76	0x3be7a56e	0.0070692813
77	0xbf95266f	-1.1652354
78	0xbdde0cc2	-0.10842277
79	0xbea54b9c	-0.32284248
80	0xbf85c97d	-1.0452114
81	0xbf9caf8e	-1.2241075
82	0x3d97676a	0.073927715
83	0xbe2426fb	-0.16030495
84	0xbe68114a	-0.22662845
85	0xbf321e6a	-0.6957766
86	0x3faf13d7	1.367793
87	0x3e8a074d	0.26958695
88	0xbdb1451a	-0.08655758
89	0xbf1f4e91	-0.6222926
90	0xbf02d59e	-0.51107204
91	0xbef37a9c	-0.4755448
92	0x3d8baed9	0.06820459
93	0x3ea6d3b4	0.32583392
94	0x3f029225	0.5100425
95	0xbf9a53d1	-1.2056829
96	0xbf053427	-0.52032703
97	0xbe9189a7	-0.28425333
98	0xbed7ee0a	-0.42173797
99	0xbf371f4c	-0.7153213
100	0xbf4c1556	-0.79720056
101	0x3f44d7f5	0.76892024
102	0x3f2268ce	0.6344117
103	0xbe72a4ca	-0.23695675
104	0x3dd28e44	0.10281041
105	0x3e817479	0.25284174
106	0x3e405c63	0.18785243
107	0x3e8b3987	0.27192327
108	0x3f7ad549	0.979817
109	0xbf685b97	-0.90764755
110	0xbe88b99a	-0.26704103
111	0x3f4683c2	0.77544796
112	0xbf5e3e42	-0.8681375
113	0xba3e00ad	-0.00072480255
114	0x3f787281	0.9704972
115	0xbf621da5	-0.88326484
116	0xbba5fc1e	-0.005065455
117	0xbf3d9570	-0.7405615
118	0x3f6c5559	0.9231773
119	0xbeeae141	-0.4587498
120	0xbf30835f	-0.68950456
121	0x3f1fbe01	0.623993
122	0x3fc97bd1	1.5740911
123	0x3f95fcdc	1.1717792
124	0xbe80ba3f	-0.25142094
125	0x3eba8c7c	0.36435306
126	0xbf8b5ab3	-1.0887054
127	0x3ea9fbf8	0.3320005
128	0xbf08b008	-0.533936
129	0x3f63e444	0.8902018
130	0x40083f77	2.1288736
131	0x3d9ee70e	0.07758914
132	0xbeca56bf	-0.39519307
133	0x3e5cbb2f	0.2155578
134	0xbe756000	-0.23962402
135	0x3f3337a1	0.7000676
136	0x3def4871	0.11683739
137	0xbe897c19	-0.26852491
138	0xbe05da51	-0.13071562
139	0x3fa940f1	1.3222944
140	0xbe3317f4	-0.17489606
141	0xbfd5ec6a	-1.6712773
142	0x3dd0cda4	0.10195473
143	0xbf143737	-0.5789675
144	0xbf32bb20	-0.6981678
145	0xbf88791c	-1.066196
146	0xbefdd43e	-0.4957599
147	0x3ebc8ac2	0.36824614
148	0xbf424582	-0.7588731
149	0xbe101145	-0.14069088
150	0x3b2efd8b	0.0026701416
151	0xbf0437d1	-0.5164767
152	0xc0080484	-2.1252756
153	0xbde8f15d	-0.113741614
154	0xbeb31c9c	-0.34982765
155	0xbeace077	-0.33765003
156	0xbfbec9a9	-1.4905292
157	0x3fb3c435	1.4044253
158	0x3d3cca1e	0.04609119
159	0xbe63fa22	-0.22263387
160	0xbee3a480	-0.4446144
161	0xbf345ba6	-0.70452344
162	0x3e083d77	0.13304697
163	0x3d958fc9	0.073028155
164	0xbfaac8a1	-1.3342477
165	0x3f04a843	0.51819247
166	0xbead535b	-0.33852658
167	0x3e6f57ef	0.23373388
168	0x3fc163f3	1.5108627
169	0x3e1eb6c2	0.15499404
170	0xbf05f023	-0.52319545
171	0xbeb03fb7	-0.3442361
172	0x3f7f97b8	0.9984088
173	0x3edcc483	0.43118677
174	0x3f4cbbe7	0.79974216
175	0xbfb42c3e	-1.4076002
176	0xbf1fd600	-0.62435913
177	0xbdf6219c	-0.12018129
178	0xbde45260	-0.11148524
179	0x3f1b40fd	0.6064604
180	0xbf73f321	-0.9529286
181	0x3ebf001f	0.3730478
182	0xbf1b1c51	-0.6059008
183	0xbe806911	-0.2508016
184	0x3eff660e	0.4988255
185	0x3f145c64	0.57953477
186	0x3f33c929	0.7022882
187	0x3dfcc1a9	0.12341625
188	0xbff8fbb7	-1.9451817
189	0x3f84be55	1.0370585
190	0x3e1196f4	0.1421774
191	0x3eeb840b	0.45999178
192	0x3f6c6048	0.92334414
193	0xbcdf0ce1	-0.02722782
194	0x3f88423c	1.0645213
195	0xbf0f5b72	-0.5599891
196	0x3ddef0c6	0.10885768
197	0x3f01a54e	0.5064286
198	0x3f99594d	1.1980377
199	0xbe98b118	-0.29822612
200	0x3dbb96ef	0.09159648
201	0xbc2c450d	-0.01051451
202	0xbe3de41e	-0.18544051
203	0xbf80efd2	-1.0073187
204	0xbf4c826d	-0.79886514
205	0x3c88c017	0.016693158
206	0x3ecb799b	0.39741215
207	0x3df1c514	0.11805168
208	0xbf3d9208	-0.7405095
209	0x3da6b77c	0.081404656
210	0x3f5157f0	0.81774807
211	0xbde9d0c8	-0.11416775
212	0x3eb25c60	0.34836102
213	0xbc862fc7	-0.016380204
214	0x3e9a2b00	0.3011093
215	0x3d7a3542	0.061085947
216	0x3eac3cf8	0.33640265
217	0x3edc1f1b	0.42992482
218	0xbe0cae0c	-0.13738269
219	0xbe181277	-0.14850794
220	0x3da2b853	0.07945313
221	0xbf2c5d3a	-0.6732975
222	0xbde192c6	-0.11014323
223	0xbf01d1fe	-0.5071105
224	0xbda26dc3	-0.07931092
225	0x3daa15e8	0.083049595
226	0xbf346e9a	-0.70481265
227	0xbe62e22d	-0.22156592
228	0xbe6f674d	-0.2337925
229	0xbee9bea3	-0.45653257
230	0xbf8d2b0f	-1.1028765
231	0xbf10edb8	-0.5661273
232	0xbedb117e	-0.42786783
233	0xbe19e5aa	-0.15029016
234	0x3dc09fa7	0.09405451
235	0x3e3e37d9	0.18575992
236	0x3eb798c3	0.35858735
237	0xbf1c2560	-0.6099453
238	0xbe9bf42e	-0.30459732
239	0x3f3846ef	0.71983236
240	0x3eb8528a	0.36000472
241	0xbdcb789c	-0.09935114
242	0x3e0c0c72	0.13676623
243	0x3de529f4	0.111896425
244	0x3d915cf6	0.07097809
245	0xbf86de61	-1.0536615
246	0x3e921a45	0.28535667
247	0xbf044f71	-0.5168372
248	0xbe453c19	-0.19261207
249	0x3f2d380f	0.67663664
250	0x3f676204	0.90383935
251	0x3f388198	0.72072744
252	0xbe9d2f86	-0.3070032
253	0x3eb6c896	0.3569991
254	0xbe89826a	-0.2685731
255	0xbd92868d	-0.0715457

rnn.bias_ih_l0_reverse f4 [192]
0	0x3ef18b97	0.4717681
1	0x3e4382ec	0.19092911
2	0x3eb4dcbd	0.3532466
3	0x3e9307a4	0.28716767
4	0xbe401e33	-0.1876152
5	0xbe95ddf4	-0.292709
6	0x3e8ee228	0.2790692
7	0x3dc4a7d5	0.09602324
8	0xbe9eed8e	-0.31040615
9	0xbe8685b6	-0.26273888
10	0xbe7b724b	-0.24555318
11	0x3eab9c79	0.33517817
12	0xbb37a74f	-0.0028023308
13	0xbea794d9	-0.3273075
14	0xbe5464f7	-0.2074164
15	0x3c708a3f	0.014681398
16	0xbecee26a	-0.40407115
17	0x3b46a7b5	0.0030312364
18	0x3e30cb1e	0.17264983
19	0xbdac9909	-0.08427627
20	0x3dd72678	0.10505384
21	0xbe61f05d	-0.22064348
22	0x3e20bff2	0.15698221
23	0xbef0c2e5	-0.47023693
24	0x3eabe2d2	0.33571488
25	0xbecd1a53	-0.40059146
26	0xbe20672a	-0.15664354
27	0x3eed5654	0.46354926
28	0xbe1f5b05	-0.15562065
29	0x3bcd569b	0.0062664277
30	0x3de025da	0.109447196
31	0xbe317fa6	-0.1733385
32	0x3d1240ae	0.035706215
33	0x3ea4d7a1	0.32195762
34	0xbe635c72	-0.22203234
35	0x3ec53851	0.38519529
36	0xbdf38807	-0.118911795
37	0xbe42a87b	-0.19009583
38	0xbe06312e	-0.13104698
39	0x3d35dcc6	0.0444
40	0xbe992a12	-0.2991491
41	0xbd514de5	-0.051099677
42	0xbf24ef80	-0.6442795
43	0xbda12e6d	-0.07870183
44	0xbc2d5ce6	-0.010581231
45	0xbd8d65f1	-0.069042094
46	0x3e5760ea	0.21033064
47	0xbe92363b	-0.28557
48	0x3e95ae55	0.29234567
49	0x3de8fe65	0.11376647
50	0xbd742ccd	-0.059613038
51	0x3e10f386	0.14155397
52	0xbae7eace	-0.0017693879
53	0x3d98ec65	0.07466964
54	0xbe953951	-0.2914529
55	0x3e464cec	0.19365281
56	0x3ddf83c2	0.10913803
57	0x3eb044a8	0.3442738
58	0xbdd9cecb	-0.10635146
59	0xbd8d8265	-0.069096364
60	0x3e4691da	0.19391575
61	0x3e00998a	0.1255857
62	0x3d2189ea	0.039438166
63	0x3e0d90a4	0.13824707
64	0x3f3636f6	0.71177614
65	0x3f0bdb60	0.54631615
66	0x3ea0ddd9	0.31419256
67	0x3d3d1496	0.04616221
68	0x3e25e8bd	0.16202064
69	0x3f48a175	0.78371364
70	0x3f0a710f	0.54078764
71	0x3ee9872f	0.4561095
72	0x3d3a5111	0.045487467
73	0x3ee0b7fb	0.43890366
74	0x3f1e763a	0.6189915
75	0x3eb164b4	0.34647143
76	0x3e2c9441	0.1685343
77	0x3e645ede	0.22301814
78	0x3e035d6f	0.12828611
79	0x3eeddd42	0.4645787
80	0x3e854510	0.26029253
81	0x3ea083a6	0.3135044
82	0x3ed8d75e	0.42351812
83	0x3e4dd134	0.20099336
84	0x3e59689c	0.21231312
85	0xbdaf696a	-0.08565028
86	0x3ed879cc	0.42280424
87	0xbe433c4d	-0.19065972
88	0x3e0a4f57	0.13506828
89	0x3ea1375e	0.31487554
90	0x3e230ff0	0.15924048
91	0x3ef54e74	0.47911417
92	0x3dc69acc	0.09697494
93	0x3f322533	0.6958801
94	0x3e2c58b3	0.16830711
95	0x3ebca266	0.3684265
96	0x3e2828cc	0.16421813
97	0x3ec27ec9	0.37987354
98	0x3dbf1fd3	0.09332242
99	0x3f084ba6	0.5324043
100	0x3e83c71a	0.2573784
101	0x3cd9b51f	0.026575623
102	0x3e9e9107	0.30970022
103	0x3f0b58a4	0.5443213
104	0x3e725402	0.23664859
105	0x3e9710cc	0.29505002
106	0xbea77423	-0.32705793
107	0xbc20517b	-0.009785051
108	0x3f4c5487	0.7981648
109	0x3f10b186	0.5652088
110	0x3efcff6b	0.49413618
111	0x3e23c2c5	0.15992267
112	0x3f49adfe	0.78781116
113	0x3f16ba92	0.58878434
114	0x3d6751bc	0.056474432
115	0x3f17ae34	0.5925019
116	0x3de2ada7	0.11068278
117	0x3f2e6adf	0.6813182
118	0x3ef72257	0.48268387
119	0x3f21f5b1	0.6326552
120	0x3e17b6f4	0.14815885
121	0x3eaa16c2	0.33220488
122	0x3f2baad4	0.6705754
123	0x3ed50cca	0.4161132
124	0x3f0adf74	0.5424721
125	0x3ec825bd	0.39091292
126	0x3e784571	0.2424524
127	0x3ecbae9a	0.39781648
128	0xbd774943	-0.060372602
129	0x3e12b27d	0.143259
130	0xbebfa7e2	-0.37432772
131	0x3eeab190	0.45838594
132	0x3e49bea8	0.19701636
133	0x3d79690a	0.06089119
134	0x3d96a075	0.073548235
135	0x3e6c4946	0.23074827
136	0x3d82a96f	0.06379973
137	0x3e431209	0.19049849
138	0x3db07533	0.08616104
139	0x3e7a056f	0.24416135
140	0xbea3cc19	-0.31991652
141	0x3ea15508	0.31510186
142	0xbd271a1c	-0.040796384
143	0x3d96ae95	0.07357518
144	0x3e80121e	0.25013822
145	0xbe854958	-0.2603252
146	0xbea57884	-0.3231851
147	0x3e31e503	0.17372517
148	0x3e1922d2	0.14954689
149	0xbddf0bd3	-0.10890927
150	0x3e663ee6	0.22484931
151	0x3d3b9ffe	0.045806877
152	0xbe9c188d	-0.3048748
153	0xbc6f3b9e	-0.014601616
154	0xbcfe8480	-0.03106904
155	0xbd98178e	-0.07426368
156	0xbc2bf8ca	-0.010496328
157	0x3e8b5c36	0.2721879
158	0x3e30c973	0.17264347
159	0xbe97b911	-0.29633382
160	0x3e2f1e8e	0.171015
161	0xbe1fdc4d	-0.15611382
162	0x3ecac212	0.3960119
163	0xbe884efc	-0.2662276
164	0x3d58dd4c	0.05294542
165	0xbb15b1bd	-0.0022841536
166	0x3ebec16e	0.3725695
167	0x3e68bc5a	0.227281
168	0x3da65ad1	0.081227906
169	0x3d652f52	0.05595333
170	0xbe7be2b3	-0.24598198
171	0x3e05a335	0.1305054
172	0xbeb23ae0	-0.34810543
173	0xbe394f80	-0.18096733
174	0x3e9eb0d0	0.30994272
175	0x3ea745e4	0.3267051
176	0xbec1108f	-0.37707946
177	0x3e55409d	0.2082543
178	0xbe058db7	-0.13042341
179	0x3e665ffd	0.22497554
180	0x3eb17124	0.34656632
181	0xbdb5cf53	-0.088774346
182	0x3ecc360b	0.39884982
183	0x3e1bc5f2	0.15212229
184	0x3eb4a8d3	0.35285053
185	0x3dc0b2ad	0.0940908
186	0xbe6c0e53	-0.2305234
187	0xbe8614b7	-0.2618768
188	0x3e7d8a1c	0.24759716
189	0x3d197647	0.037466314
190	0x3e0f6108	0.14001858
191	0xbe8aab9f	-0.27084062

rnn.bias_hh_l0_reverse f4 [192]
0	0x3ebd12cf	0.36928412
1	0x3e9bbe98	0.3041885
2	0x3f0b6e6a	0.54465353
3	0x3d9707eb	0.07374557
4	0xbe9e84cf	-0.309607
5	0xbdf8e639	-0.121532865
6	0x3e3f5f23	0.18688636
7	0x3e6ba4e6	0.23012123
8	0xbe8e36f9	-0.27776316
9	0xbd908905	-0.070573844
10	0xbe3f0273	-0.18653278
11	0x3e9cf0cd	0.30652466
12	0xbd83db73	-0.06438341
13	0xbed1e4a3	-0.40994748
14	0xbd668d48	-0.05628708
15	0x3e49c217	0.19702946
16	0xbefb5361	-0.4908705
17	0xbdd64235	-0.10461847
18	0x3cae4e3d	0.021277541
19	0xbdb259d5	-0.0870854
20	0xbd9c6652	-0.076367036
21	0xbe4ae9e6	-0.19815788
22	0x3e3f46dd	0.18679376
23	0xbef76268	-0.48317266
24	0x3e2bd55c	0.16780609
25	0xbeed85a0	-0.4639101
26	0xbe15c62e	-0.14626381
27	0x3eb02cc2	0.34409148
28	0xbea51caa	-0.3224843
29	0xbd7e8dfb	-0.062147122
30	0x3e20ed9f	0.15715645
31	0xbe7f2b68	-0.24918902
32	0xbdc8c038	-0.09802288
33	0x3e5b8111	0.21435954
34	0xbe7f773a	-0.24947825
35	0x3f0f61b3	0.5600845
36	0xbd72b595	-0.0592552
37	0xbe586b7b	-0.2113475
38	0xbdcccddb	-0.10000201
39	0x3d0f33f7	0.034961667
40	0xbe4ad0db	-0.19806235
41	0x3d233841	0.03984857
42	0xbed4e449	-0.41580418
43	0xbe60c09d	-0.21948476
44	0xbdd12dd6	-0.10213821
45	0xbe2730cd	-0.1632721
46	0x3e1f47c1	0.15554716
47	0xbd923b97	-0.07140272
48	0x3ecad9f5	0.39619413
49	0x3e2effd3	0.17089777
50	0xbe28f051	-0.16497923
51	0x3eab6827	0.334779
52	0xbe2c9bd7	-0.16856323
53	0xb8cb1cbe	-9.685148e-05
54	0xbee92237	-0.45533916
55	0x3cf7f5e3	0.030268615
56	0x3dbf8e4f	0.09353315
57	0x3e9e57e2	0.30926424
58	0xbd820d7c	-0.06350228
59	0xbe64e4c8	-0.22352898
60	0x3dc13a78	0.0943498
61	0xbced54c9	-0.028971093
62	0xbe160564	-0.14650494
63	0x3df99f66	0.12188606
64	0x3f3b8bee	0.7326039
65	0x3ee57fca	0.44824058
66	0x3ebdd700	0.37078094
67	0x3d83e9e1	0.06441093
68	0x3ea891af	0.32923648
69	0x3f39204d	0.7231491
70	0x3eef77ad	0.46770993
71	0x3f1c8041	0.611332
72	0x3e755d83	0.23961453
73	0x3eb7f6b7	0.35930416
74	0x3ed97ab0	0.42476416
75	0x3eb61c55	0.3556849
76	0x3e54ca3e	0.20780274
77	0x3e83a62d	0.2571272
78	0x3e612082	0.21985057
79	0x3f23ec2a	0.6403223
80	0x3eb607e1	0.35552886
81	0x3ec16501	0.37772372
82	0x3e8aa6bc	0.27080333
83	0x3e3caa73	0.18424396
84	0x3e1e1f73	0.15441684
85	0x3d25baed	0.04046147
86	0x3e823c18	0.25436473
87	0xbe2f7eba	-0.17138186
88	0x3e859ca4	0.2609607
89	0x3ea61431	0.3243728
90	0x3ddfc1fc	0.109256715
91	0x3ec83270	0.3910098
92	0x3d5bd35e	0.053668372
93	0x3f0978a6	0.5369972
94	0x3e3fa73a	0.18716136
95	0x3eccdafa	0.40010816
96	0x3e254e37	0.16143118
97	0x3eaa08bb	0.33209786
98	0xbaeba9b7	-0.0017979656
99	0x3f3219f1	0.69570833
100	0x3df16719	0.117872424
101	0xbdb784fd	-0.089609124
102	0x3e82db39	0.2555788
103	0x3f381d6d	0.719199
104	0x3e95d4d9	0.29263952
105	0x3ec900f2	0.39258534
106	0xbe9e9af7	-0.30977604
107	0x3de63122	0.1123984
108	0x3f35d43a	0.7102696
109	0x3eeb31b7	0.45936367
110	0x3f0e6990	0.55629826
111	0x3e941b16	0.28926915
112	0x3f19bc1c	0.6005266
113	0x3f207fff	0.62695307
114	0x3cc3fb09	0.023923414
115	0x3f1e474a	0.6182753
116	0x3dc89745	0.097944774
117	0x3f310186	0.6914295
118	0x3eb1cf3a	0.34728414
119	0x3f1a3059	0.6023002
120	0x3e299faf	0.1656482
121	0x3ebfd65e	0.37468237
122	0x3f2b2984	0.6686022
123	0x3ec3715d	0.38172427
124	0x3ed13c1e	0.40866178
125	0x3ef1de97	0.47240135
126	0x3e900aa1	0.2813311
127	0x3ef0ded3	0.47045
128	0xbeabb597	-0.3353698
129	0x3e5d034f	0.21583293
130	0xbf3e4734	-0.743274
131	0x3f28246c	0.65680575
132	0xbd636cc6	-0.055523656
133	0x3d5448e1	0.051827315
134	0x3dc4e056	0.09613101
135	0xbdaeb9f0	-0.085315585
136	0x3e577d0b	0.21043794
137	0xbc796b23	-0.015223297
138	0xbe940bb3	-0.28915176
139	0x3f2cb119	0.6745773
140	0x3d3bd885	0.045860786
141	0x3a8accd7	0.0010589611
142	0xbf5f4d8e	-0.87227714
143	0xbddb7936	-0.107164785
144	0xbd523284	-0.051317707
145	0xbebb272a	-0.36553317
146	0xbeba02a1	-0.3633013
147	0x3f089590	0.53353214
148	0x3e8ab5b0	0.27091742
149	0xbec70825	-0.388734
150	0xbdeaf0b2	-0.1147169
151	0xbd832811	-0.064041264
152	0x3e0903e4	0.1338039
153	0x3db364ca	0.08759458
154	0x3e0daab3	0.13834648
155	0xbf05569c	-0.5208528
156	0x3efe29da	0.49641305
157	0x3e97820f	0.29591414
158	0x3ed09f77	0.40746662
159	0xbd364bbc	-0.04450582
160	0x3ea0ceb6	0.31407708
161	0x3ea947da	0.3306263
162	0x3f15c360	0.58501244
163	0xbe36aa6e	-0.17838451
164	0xbe9eb59e	-0.30997938
165	0xbe55460b	-0.208275
166	0x3ec8b0b0	0.39197302
167	0x3e3475ee	0.17623112
168	0x3eff16bf	0.4982204
169	0x3eb1473c	0.3462466
170	0xbe64dbcf	-0.22349475
171	0x3e4efd80	0.2021389
172	0xbe5448a0	-0.20730829
173	0xbdf03ffb	-0.11730953
174	0x3e57eccf	0.21086429
175	0x3e62f178	0.22162426
176	0xbef9e65a	-0.48808557
177	0x3e33c62e	0.17556068
178	0xbe7a7bbd	-0.24461265
179	0x3dc6e3a6	0.09711389
180	0x3d67ba16	0.05657395
181	0x3e574c50	0.21025205
182	0x3d76fb32	0.060298152
183	0xbe2ece6e	-0.17070934
184	0x3f2eef9b	0.6833436
185	0x3e378471	0.17921616
186	0x3e08c346	0.13355741
187	0xbf3d2f26	-0.7390007
188	0x3e2ccd13	0.16875105
189	0xbec5e883	-0.38653955
190	0x3dcdb42b	0.1004413
191	0xbf009022	-0.5021993
